{"format": "torch", "nodes": [{"name": "model", "id": 139736531548816, "class_name": "DAE_KAN_Attention(\n  (ae_encoder): Autoencoder_Encoder(\n    (kan): KAN_Convolutional_Layer(\n      (convs): ModuleList(\n        (0): KAN_Convolution(\n          (conv): KANLinear(\n            (base_activation): SiLU()\n          )\n        )\n      )\n    )\n    (encoder1): Sequential(\n      (0): Conv2d(3, 384, kernel_size=(3, 3), stride=(2, 2), padding=(1, 1))\n      (1): BatchNorm2d(384, eps=1e-05, momentum=0.1, affine=True, track_running_stats=True)\n      (2): ELU(alpha=1.0, inplace=True)\n    )\n    (encoder2): Sequential(\n      (0): Conv2d(384, 128, kernel_size=(3, 3), stride=(2, 2), padding=(1, 1))\n      (1): BatchNorm2d(128, eps=1e-05, momentum=0.1, affine=True, track_running_stats=True)\n      (2): ELU(alpha=1.0, inplace=True)\n    )\n    (encoder3): Sequential(\n      (0): Conv2d(128, 64, kernel_size=(3, 3), stride=(2, 2), padding=(1, 1))\n      (1): BatchNorm2d(64, eps=1e-05, momentum=0.1, affine=True, track_running_stats=True)\n      (2): ELU(alpha=1.0, inplace=True)\n    )\n    (ECA_Net): ECALayer(\n      (avgpool): AdaptiveAvgPool2d(output_size=(1, 1))\n      (conv): Conv1d(1, 1, kernel_size=(3,), stride=(1,), padding=(1,), bias=False)\n      (sigmoid): Sigmoid()\n    )\n    (decoder1): Sequential(\n      (0): BatchNorm2d(64, eps=1e-05, momentum=0.1, affine=True, track_running_stats=True)\n      (1): ConvTranspose2d(64, 128, kernel_size=(3, 3), stride=(2, 2), padding=(1, 1), output_padding=(1, 1))\n      (2): BatchNorm2d(128, eps=1e-05, momentum=0.1, affine=True, track_running_stats=True)\n      (3): ELU(alpha=1.0, inplace=True)\n    )\n    (decoder2): Sequential(\n      (0): ConvTranspose2d(128, 384, kernel_size=(3, 3), stride=(2, 2), padding=(1, 1), output_padding=(1, 1))\n      (1): BatchNorm2d(384, eps=1e-05, momentum=0.1, affine=True, track_running_stats=True)\n      (2): ELU(alpha=1.0, inplace=True)\n    )\n  )\n  (bottleneck): Autoencoder_BottleNeck(\n    (encoder1): Sequential(\n      (0): Conv2d(384, 384, kernel_size=(3, 3), stride=(2, 2), padding=(1, 1))\n      (1): BatchNorm2d(384, eps=1e-05, momentum=0.1, affine=True, track_running_stats=True)\n      (2): ELU(alpha=1.0, inplace=True)\n    )\n    (attn1): BAM(\n      (channel_attn): ChannelGate(\n        (avgpool): AdaptiveAvgPool2d(output_size=1)\n        (mlp): Sequential(\n          (0): Linear(in_features=384, out_features=24, bias=True)\n          (1): ReLU(inplace=True)\n          (2): Linear(in_features=24, out_features=384, bias=True)\n        )\n        (bn): BatchNorm1d(384, eps=1e-05, momentum=0.1, affine=True, track_running_stats=True)\n      )\n      (spatial_attn): SpatialGate(\n        (conv1): Conv2d(384, 24, kernel_size=(1, 1), stride=(1, 1))\n        (conv2): Sequential(\n          (0): Conv2d(24, 24, kernel_size=(3, 3), stride=(1, 1), padding=(4, 4), dilation=(4, 4))\n          (1): BatchNorm2d(24, eps=1e-05, momentum=0.1, affine=True, track_running_stats=True)\n          (2): ReLU(inplace=True)\n          (3): Conv2d(24, 24, kernel_size=(3, 3), stride=(1, 1), padding=(4, 4), dilation=(4, 4))\n          (4): BatchNorm2d(24, eps=1e-05, momentum=0.1, affine=True, track_running_stats=True)\n          (5): ReLU(inplace=True)\n        )\n        (conv3): Conv2d(24, 1, kernel_size=(1, 1), stride=(1, 1))\n        (bn): BatchNorm2d(1, eps=1e-05, momentum=0.1, affine=True, track_running_stats=True)\n      )\n    )\n    (encoder2): Sequential(\n      (0): Conv2d(384, 16, kernel_size=(3, 3), stride=(2, 2), padding=(1, 1))\n      (1): BatchNorm2d(16, eps=1e-05, momentum=0.1, affine=True, track_running_stats=True)\n      (2): ELU(alpha=1.0, inplace=True)\n    )\n    (attn2): BAM(\n      (channel_attn): ChannelGate(\n        (avgpool): AdaptiveAvgPool2d(output_size=1)\n        (mlp): Sequential(\n          (0): Linear(in_features=16, out_features=1, bias=True)\n          (1): ReLU(inplace=True)\n          (2): Linear(in_features=1, out_features=16, bias=True)\n        )\n        (bn): BatchNorm1d(16, eps=1e-05, momentum=0.1, affine=True, track_running_stats=True)\n      )\n      (spatial_attn): SpatialGate(\n        (conv1): Conv2d(16, 1, kernel_size=(1, 1), stride=(1, 1))\n        (conv2): Sequential(\n          (0): Conv2d(1, 1, kernel_size=(3, 3), stride=(1, 1), padding=(4, 4), dilation=(4, 4))\n          (1): BatchNorm2d(1, eps=1e-05, momentum=0.1, affine=True, track_running_stats=True)\n          (2): ReLU(inplace=True)\n          (3): Conv2d(1, 1, kernel_size=(3, 3), stride=(1, 1), padding=(4, 4), dilation=(4, 4))\n          (4): BatchNorm2d(1, eps=1e-05, momentum=0.1, affine=True, track_running_stats=True)\n          (5): ReLU(inplace=True)\n        )\n        (conv3): Conv2d(1, 1, kernel_size=(1, 1), stride=(1, 1))\n        (bn): BatchNorm2d(1, eps=1e-05, momentum=0.1, affine=True, track_running_stats=True)\n      )\n    )\n    (decoder): Sequential(\n      (0): ConvTranspose2d(16, 128, kernel_size=(3, 3), stride=(2, 2), padding=(1, 1), output_padding=(1, 1))\n      (1): BatchNorm2d(128, eps=1e-05, momentum=0.1, affine=True, track_running_stats=True)\n      (2): ELU(alpha=1.0, inplace=True)\n    )\n  )\n  (ae_decoder): Autoencoder_Decoder(\n    (kan): KAN_Convolutional_Layer(\n      (convs): ModuleList(\n        (0): KAN_Convolution(\n          (conv): KANLinear(\n            (base_activation): SiLU()\n          )\n        )\n      )\n    )\n    (encoder1): Sequential(\n      (0): ConvTranspose2d(128, 384, kernel_size=(3, 3), stride=(2, 2), padding=(1, 1), output_padding=(1, 1))\n      (1): BatchNorm2d(384, eps=1e-05, momentum=0.1, affine=True, track_running_stats=True)\n      (2): ELU(alpha=1.0, inplace=True)\n    )\n    (encoder2): Sequential(\n      (0): Conv2d(384, 128, kernel_size=(3, 3), stride=(2, 2), padding=(1, 1))\n      (1): BatchNorm2d(128, eps=1e-05, momentum=0.1, affine=True, track_running_stats=True)\n      (2): ELU(alpha=1.0, inplace=True)\n    )\n    (encoder3): Sequential(\n      (0): Conv2d(128, 64, kernel_size=(3, 3), stride=(2, 2), padding=(1, 1))\n      (1): BatchNorm2d(64, eps=1e-05, momentum=0.1, affine=True, track_running_stats=True)\n      (2): ELU(alpha=1.0, inplace=True)\n    )\n    (ECA_Net): ECALayer(\n      (avgpool): AdaptiveAvgPool2d(output_size=(1, 1))\n      (conv): Conv1d(1, 1, kernel_size=(3,), stride=(1,), padding=(1,), bias=False)\n      (sigmoid): Sigmoid()\n    )\n    (decoder1): Sequential(\n      (0): BatchNorm2d(64, eps=1e-05, momentum=0.1, affine=True, track_running_stats=True)\n      (1): ConvTranspose2d(64, 128, kernel_size=(3, 3), stride=(2, 2), padding=(1, 1), output_padding=(1, 1))\n      (2): BatchNorm2d(128, eps=1e-05, momentum=0.1, affine=True, track_running_stats=True)\n      (3): ELU(alpha=1.0, inplace=True)\n    )\n    (decoder2): Sequential(\n      (0): ConvTranspose2d(128, 384, kernel_size=(3, 3), stride=(2, 2), padding=(1, 1), output_padding=(1, 1))\n      (1): BatchNorm2d(384, eps=1e-05, momentum=0.1, affine=True, track_running_stats=True)\n      (2): ELU(alpha=1.0, inplace=True)\n    )\n    (Output_Layer): Sequential(\n      (0): ConvTranspose2d(384, 3, kernel_size=(3, 3), stride=(2, 2), padding=(1, 1), output_padding=(1, 1))\n      (1): BatchNorm2d(3, eps=1e-05, momentum=0.1, affine=True, track_running_stats=True)\n      (2): ELU(alpha=1.0, inplace=True)\n    )\n    (reconstructtion): KAN_Convolutional_Layer(\n      (convs): ModuleList(\n        (0): KAN_Convolution(\n          (conv): KANLinear(\n            (base_activation): SiLU()\n          )\n        )\n      )\n    )\n  )\n)", "parameters": [["ae_encoder.kan.convs.0.conv.base_weight",
…
